TP4/runs/gcn.pt (torch, 371381 bytes, 4 tensors)

conv1.bias f4 [64]
000000 ea 31 da 3d bc 6c d4 3d 8b 5d ee 3d 13 b5 23 3e
       0.106540516 0.10372302 0.11638936 0.15987043
000010 1e 1f 54 3e 50 df d7 3d 4f 40 a2 3d e5 90 93 3d
       0.20714995 0.1054064 0.07922422 0.07205371
000020 f1 2f 5c 3e 8b c2 50 3e 09 27 25 3e 6c 67 28 3e
       0.21502663 0.20386712 0.16128172 0.16445702
000030 4e 86 e7 3d a7 dc d3 3d 22 d9 11 3e 34 c7 34 3e
       0.113049135 0.103448205 0.14242986 0.17654115
000040 22 57 c6 3d 34 c9 0f 3e db e6 19 3e 3c 56 e8 3d
       0.09684588 0.14041597 0.1502947 0.11344573
000050 60 ce b0 3d b6 7b 59 3e c1 44 fa 3d de 8b 9d 3d
       0.08633113 0.21238598 0.12220145 0.07692693
000060 63 62 b7 3d 64 e4 fb 3d 79 25 f6 3d ca 4c a3 3d
       0.08954313 0.122994214 0.12018866 0.07973631
000070 d3 7a 94 3d 2d 78 b5 3d 7c 3f fe 3d 63 c1 41 3e
       0.07249989 0.08860812 0.124144524 0.18921427
000080 39 07 0b 3e 72 30 8a 3d ce 8e ea 3d d4 82 0f 3e
       0.13576974 0.067475215 0.11453019 0.1401475
000090 30 e7 fb 3d 55 a5 ea 3d d0 7c be 3d ac 69 0b 3e
       0.12299955 0.11457316 0.0930115 0.1361453
0000a0 4e 4c d5 3d 1a 7d d3 3d 7f 19 ec 3d 58 52 00 3e
       0.104149446 0.103265956 0.115283005 0.12531412
0000b0 ee fe 0f 3e 5a ab d9 3d 3b 24 c9 3d 4a e0 23 3e
       0.14062092 0.10628386 0.098213635 0.16003528
0000c0 66 78 05 3e e7 be 21 3e 80 2f 56 3e 9c 24 22 3e
       0.1303421 0.1579548 0.20916557 0.15834278
0000d0 05 c0 01 3e 51 22 4a 3e 6a ea 26 3e ce 23 80 3d
       0.12670906 0.19739653 0.1630036 0.06256829
0000e0 dd 75 ff 3d 9c 4e 44 3e 57 2b d5 3d bf 1b 22 3e
       0.124736525 0.19170612 0.10408657 0.15830897
0000f0 cc 8c 5c 3e 10 58 01 3e 58 a4 18 3e eb b9 2b 3e
       0.21538085 0.1263125 0.14906442 0.16770141

conv1.lin.weight f4 [64, 1433]
000000 4b ed 74 bc b8 9c 11 bc 36 a8 00 3d ea d2 47 bc
       -0.014949153 -0.008887462 0.03141042 -0.012196282
000010 8c 69 0d 3e 48 48 18 bb 62 88 0d 3d 60 78 cd bc
       0.13809794 -0.0023236442 0.034553893 -0.025081813
000020 cb ce 9d 3c 44 e8 54 3a f4 60 15 bb de a8 7d bb
       0.019263646 0.00081217685 -0.0022793384 -0.003870539
000030 0a 8a a1 3d cd 73 cb bc 31 1f d3 39 e7 4f 73 bc
       0.07887657 -0.024835492 0.00040268296 -0.014850593
000040 ca 42 88 bc 01 2d e6 3c 58 81 f6 ba 6d a3 79 be
       -0.01663341 0.028097631 -0.0018806858 -0.24378748
000050 1c cf 6a b3 88 20 30 3c a7 28 03 3c dd c4 88 bc
       -5.4670735e-08 0.010749944 0.008005298 -0.016695434
000060 6b dc 9f 3b 39 9f c6 3d b8 76 a2 3d 24 4e 21 bc
       0.004878571 0.09698338 0.079328 -0.00984529
000070 62 74 4a 3d be 77 97 3c 73 9b 11 3d 3b 25 ea 3a
       0.049427398 0.018489715 0.03554864 0.0017863879
000080 b2 e0 ca bb 05 75 30 3a af 6d cc bb f0 95 3b bc
       -0.0061913365 0.00067313045 -0.0062386612 -0.011449322
000090 c4 7a 52 bc e1 05 6e bb 09 a9 22 3c 6e 0b 94 bd
       -0.012846652 -0.0036319422 0.009927996 -0.072287425
0000a0 94 1c a2 3d ef ee 5d bd b1 a9 e9 3a 47 5a f8 bb
       0.07915607 -0.054182943 0.0017827061 -0.0075791213
0000b0 be d9 8e bc 86 ee 64 3c d9 86 3c 3b 1c 3b a3 3c
       -0.017437812 0.013972884 0.00287669 0.019925646
0000c0 cb 57 0e 3d 72 c8 a2 b9 b4 18 5d 3c f3 ff f6 bd
       0.034751695 -0.0003104839 0.013494659 -0.12060537
0000d0 09 b3 46 3d fa 38 9b ba 2b 8c 14 3d 39 1b af 3a
       0.048510585 -0.0011842542 0.036266487 0.0013359553
0000e0 03 83 38 3d 99 cb 29 bc 1e c0 a9 bd 1b 4e 48 3c
       0.045046818 -0.010363483 -0.082885966 0.012225653
0000f0 6d 06 62 b5 03 c8 23 bd b7 62 3d 3d 8c a2 d4 3d
       -8.420091e-07 -0.039985668 0.04623672 0.10382566
000100 33 dd 13 3d ba d1 dc 3c a8 f8 7c 3d 24 34 14 3d
       0.036099624 0.026955474 0.061760575 0.036182538
000110 c7 99 2e bb 03 15 a8 3b 26 81 66 3c 38 4f da 3b
       -0.0026641951 0.005129458 0.014068877 0.0066622756
000120 93 f8 2b bb f7 0e c0 bb c7 83 f8 3b 2e fc 83 bc
       -0.002624069 -0.005861159 0.0075840685 -0.01611146
000130 e4 9a 4e 3c 70 97 6a bd ab 0c 3c 3c 14 8a 36 3a
       0.012610171 -0.05727333 0.01147763 0.0006963324
000140 f2 38 0c bd 39 2b 15 3d 86 5c b8 3c 05 7e 0b 3c
       -0.034233995 0.036418173 0.022505056 0.008513932
000150 35 4e e4 3b 26 92 90 bc 30 04 23 bc 72 bd 6c 3c
       0.006967331 -0.017647814 -0.009949729 0.014449464
000160 03 2a 35 bd c6 ba 47 3c 2d d5 ab 3b d3 9c 11 38
       -0.04422952 0.012190526 0.0052439184 3.4716748e-05
000170 fd 9f a7 3c 43 bc da 3d 8d e3 14 bc ed cf 53 bc
       0.02046203 0.10680439 -0.009087455 -0.012927991
000180 79 ad 62 3c 2a 8b d7 bc 2e 89 9a 3d 64 f8 6b 3d
       0.013835304 -0.026311476 0.07545696 0.05760993
000190 0f 6b 32 3c fe ce 20 bc 17 74 c3 ba 71 4c a9 bb
       0.010889783 -0.009814976 -0.0014911917 -0.005166583
0001a0 86 2a 03 bd 0c 2d 51 bb 16 38 98 3c 5e df 87 38
       -0.032022975 -0.003191772 0.018581431 6.478907e-05
0001b0 40 e1 e8 3d 9e 9b 95 39 a4 70 7e ba d0 43 47 bc
       0.11371088 0.00028535438 -0.0009706116 -0.012162164
0001c0 de a1 6e 3c 41 41 8b 3a 1e 61 25 3c bb 03 fe 39
       0.014564959 0.0010624306 0.010093955 0.00048449435
0001d0 0e 1d 59 3b e9 97 08 3b ad dd 8b 3c 32 06 16 bb
       0.003312889 0.0020842499 0.017073477 -0.0022891876
0001e0 6e 17 be bb 23 cb 3d 3d fb c0 44 3d 7f f8 11 bc
       -0.005801133 0.046336304 0.048035603 -0.008909344
0001f0 32 7f 1a bd 0a df 16 bb cf bf 0c 3d 4e 82 01 bd
       -0.03771896 -0.0023021125 0.03436261 -0.03161841
000200 41 35 88 bd f7 d1 de bc a1 b6 2d 3b 7f ee 9c bd
       -0.066507824 -0.027199728 0.002650656 -0.07662677
000210 94 ec f5 3c 89 15 85 3b e1 8b bd bc 45 75 22 be
       0.030020036 0.004061405 -0.023137989 -0.15865047
000220 f1 c9 57 bd 21 b1 8f 3a 2b fb 1d bb c9 b2 8f bb
       -0.05268282 0.0010962823 -0.0024106007 -0.0043853265
000230 95 5a e1 3d 4a 3c 81 3b ad 21 db 3c fd dc 25 bc
       0.11003605 0.0039439546 0.026749456 -0.0101234885
000240 a8 72 3f bb ab 3d f4 33 66 a5 28 3c 6e f5 a9 3c
       -0.0029212628 1.1373353e-07 0.01029334 0.020746913
000250 0d e9 71 3c 12 ea bd bb a6 43 a2 3b 39 fa 3b 3a
       0.014765036 -0.0057957256 0.004951912 0.000717077
000260 54 fa 74 3b 7c e6 c6 bb b4 35 5a bc 50 8e 19 bd
       0.0037380653 -0.0060699563 -0.013318468 -0.037489235
000270 2b 9b 94 3b c6 f0 c1 bb 03 81 f1 3c 6d 74 0d 3d
       0.004535099 -0.005918595 0.029480463 0.03453486
000280 f3 a4 fc bc fb 5a 67 3c 17 40 c6 bd b2 44 bc 3b
       -0.030840373 0.0141208125 -0.09680193 0.005745494
000290 e9 13 87 3b 9d 4c 68 3a d0 00 9e bc 58 7f 1e 3c
       0.0041222465 0.0008861514 -0.019287497 0.009673916
0002a0 3d 59 cf bd bb fb 10 bc ac 61 a5 3c 4a 56 b6 ba
       -0.10124443 -0.00884908 0.020188175 -0.0013911214
0002b0 bb 3d 2f bc a1 62 67 bc 0d 8f 92 3d 3a 34 a3 3c
       -0.01069587 -0.014122636 0.07156191 0.019922365
0002c0 64 88 72 bd f5 91 67 bb d9 34 ec 3b 43 68 83 3d
       -0.059212103 -0.00353348 0.0072084484 0.06416371
0002d0 19 c1 ac 3b 72 32 a4 3c ed ab fc 3b 8e 7a 08 bc
       0.0052720425 0.020043585 0.007710925 -0.008330001
0002e0 83 aa cf bb 40 ce 7d 3a bc 1f 4a 3c e6 0d 05 3d
       -0.0063374653 0.0009681918 0.012336668 0.032483958
0002f0 38 87 b8 3c b8 ae ab 3c 0b 58 4a 3c 95 3c 22 3c
       0.022525415 0.020957336 0.012350093 0.009902139
000300 da 56 36 bd 05 72 85 3b 91 a5 9e 3c 8a a8 e9 3c
       -0.04451642 0.00407243 0.019366058 0.028522749
000310 59 30 06 bd fa 38 af bc 5a 00 84 bc 6e fd 53 bc
       -0.03276095 -0.021389473 -0.016113449 -0.01293884
000320 6a fa 07 3c b1 63 b9 ba 0a 70 06 3c 93 7c 40 3c
       0.008299449 -0.001414409 0.008205423 0.011748451
000330 d8 cd c5 3a 7c ae 9a 3d 01 53 d0 bb d9 f8 2e bc
       0.0015091253 0.075528115 -0.006357551 -0.010679447
000340 2a 4b 17 bd 67 22 8c bb 31 c2 0d bc e4 7d 92 3d
       -0.036936916 -0.004276562 -0.008652256 0.07152918
000350 41 7c 30 bd 34 5b 97 bb 47 26 3b 3c 35 9d 22 3d
       -0.043087248 -0.0046190266 0.0114227 0.039700706
000360 79 e7 71 bc 16 a7 da bc 48 d2 31 bc 42 8c 94 3c
       -0.01476466 -0.026691 -0.010853358 0.018133286
000370 e6 42 83 3c 86 f2 cc 3c 34 92 02 ba 1d 7e 39 bb
       0.01602311 0.025017988 -0.00049808924 -0.002830393
000380 8b 1c 0e 3d 41 23 c5 bb 07 a2 51 3c 01 cb 8e 39
       0.03469519 -0.0060161655 0.012794978 0.000272356
000390 e3 19 97 3c 07 63 2b bc be 2d d1 bc af d8 81 bc
       0.018444961 -0.010460622 -0.025534507 -0.015850393
0003a0 92 dd 05 bd 93 b4 0b 3d d5 af 08 3e cd b3 d6 bc
       -0.03268201 0.034107756 0.13348325 -0.026208783
0003b0 c0 56 d4 bb 4c 93 06 3a 8d 84 ef bc 87 1b 8f bc
       -0.006480068 0.0005133643 -0.02923801 -0.01746918
0003c0 2c d5 8a bc f7 0f 79 3c 44 a6 5e 3b 63 03 d8 3b
       -0.016947351 0.01520156 0.0033973614 0.0065922006
0003d0 1d 82 f8 39 cb 6c 0a 3d 91 68 c1 3b 58 d0 6c 3d
       0.00047399188 0.03379516 0.005902358 0.05781588
0003e0 38 7b c5 3b 97 8b f0 bc fe 4e 82 bd a9 a8 ab bc
       0.0060266517 -0.029363437 -0.06362723 -0.020954447
0003f0 47 60 86 3c 35 af c9 ba c6 b0 b5 bc de 03 a2 3c
       0.01640333 -0.0015387299 -0.022179019 0.019777235

conv2.bias f4 [7]
000000 cf a1 43 be b0 5b 2b be 5a 84 f9 3d ca ec b7 3d
       -0.19104694 -0.16734195 0.12183447 0.08980711
000010 e2 95 e4 3a af 8b 73 3e 47 54 1c be
       0.0017439688 0.23783754 -0.15266524

conv2.lin.weight f4 [7, 64]
000000 20 c9 e3 3e a1 2f 89 3e d6 82 50 3e e5 71 6c 3e
       0.44489384 0.2679415 0.2036241 0.23090322
000010 d1 37 08 bf de a5 0d bf c3 54 12 3f 6a 28 11 bf
       -0.5321017 -0.5533122 0.57160586 -0.5670229
000020 b2 69 f8 3e 6c d6 03 bf 6f 8b fb 3e 06 b5 d1 3e
       0.4851814 -0.51499057 0.49129817 0.40958422
000030 a5 ff ac be 09 18 91 3e 00 90 82 be 1a fe 12 bf
       -0.3378879 0.2833865 -0.25500488 -0.5741898
000040 74 60 01 bf 91 35 94 3e 2a 03 8d be a7 ff 8f be
       -0.505378 0.28947118 -0.27541476 -0.28124735
000050 03 ae 2c 3f c9 37 e1 be cd 6c 06 3f 24 1a 1c 3f
       0.6745302 -0.43987873 0.52509767 0.6097739
000060 0d 45 17 be a4 98 03 3f 71 b0 1e bf 51 ba df 3e
       -0.14772435 0.51404786 -0.6198798 0.43696836
000070 8d 16 e7 be f2 02 dd be 86 75 99 3e ab 73 cf 3e
       -0.45134392 -0.4316631 0.29972476 0.40517935
000080 43 4b 22 bf 1f b4 fd 3d ff eb ac 3e 5d e4 68 bd
       -0.6339609 0.12387871 0.337738 -0.05685841
000090 82 45 56 3e 6f 46 f8 3e 60 4b 23 be 3b 92 b9 be
       0.20924953 0.48491237 -0.15946722 -0.36244377
0000a0 09 d4 0a 3f cf 3f e5 3e 8d c8 cc 3e 67 8d 8e 3e
       0.5422979 0.44775245 0.39996758 0.27842256
0000b0 bc 8d 0f bf e8 62 0e 3f 8b f3 6d be 12 91 d4 be
       -0.56075644 0.5561967 -0.23237436 -0.4151693
0000c0 3b 69 07 3f 0d 9e eb be d3 52 90 be 38 f5 e2 be
       0.52894944 -0.4601902 -0.2818819 -0.44327712
0000d0 e2 06 ae be 94 76 e5 be e6 75 dd be 28 f1 c4 be
       -0.33989626 -0.4481703 -0.43254012 -0.38465238
0000e0 26 2a be 3e b3 6a 1b bf c0 2d 05 bf 6d 66 06 3f
       0.37141532 -0.60709685 -0.52022934 0.5250004
0000f0 7e e4 0b bf cd cb d3 be ad 52 ae be 19 04 c4 3e
       -0.54645526 -0.41366425 -0.34047452 0.38284376
000100 ba 33 02 bf e3 2f 07 3f 98 a3 12 3f aa 9e e5 be
       -0.5086018 0.52807444 0.57280874 -0.44847614
000110 65 b6 58 3e 85 d0 bf 3e af d2 4a be 13 bc c0 3e
       0.21163328 0.37463775 -0.19806932 0.3764349
000120 f3 3f 0f bf 4a 81 e7 3e 35 03 91 be f2 d8 c9 be
       -0.55956954 0.45215827 -0.2832276 -0.3942333
000130 77 81 a6 be 6c 8c d3 be ac d0 87 be a0 a5 b7 3e
       -0.3252065 -0.4131807 -0.26526392 0.3586855
000140 a9 e6 8d 3e 66 f7 06 bf 28 47 10 bf d1 f0 80 be
       0.27715042 -0.5272125 -0.56358576 -0.25183728
000150 cf 0b d3 be 15 c6 ee be d1 66 54 bd cd 7b 6c be
       -0.41219947 -0.466355 -0.051855866 -0.23094101
000160 c7 a7 12 3f bc e4 30 3e 11 0e 9b be 5f db 03 3f
       0.5728726 0.17274755 -0.3028417 0.5150661
000170 61 03 fa 3e bd f0 00 3f 20 3d 82 be 8d 24 b9 3e
       0.48830703 0.5036734 -0.2543726 0.361607
000180 67 2d 02 bf 59 8b 06 3f dc 79 8e be ec d2 e4 be
       -0.5085053 0.5255638 -0.27827346 -0.4469217
000190 25 2c 63 3e 82 62 9d 3e ec 3c 11 3f d9 1b e3 be
       0.22184809 0.30739218 0.56733584 -0.44357184
0001a0 e6 42 bf 3e cc fe ef 3d b7 d9 c0 bd 26 89 02 bf
       0.37355727 0.117185205 -0.09416526 -0.5099052
0001b0 31 07 dc 3e 4e a8 fe 3e 25 c2 ae be 93 94 4b be
       0.42974237 0.4973778 -0.34132496 -0.19880895
0001c0 37 7f ae 3e 3c c0 c4 be e7 d2 ed be 63 c0 c1 be
       0.34081432 -0.38427913 -0.46449968 -0.37842092
0001d0 d4 5d 02 3f 2d f4 d3 3e 55 23 06 3f 39 7c 18 be
       0.5092442 0.4139723 0.5239766 -0.14891137
0001e0 d5 7b 39 bc d3 c8 f9 3e 31 f8 80 be 2c 99 d1 be
       -0.011321028 0.4878603 -0.25189355 -0.40937173
0001f0 7a ec 8f be ee 86 4a 3d 6f d7 57 be e1 53 c7 be
       -0.28110105 0.049445085 -0.21078275 -0.38931182
000200 09 02 b9 3e 3d 92 c8 be ef 15 b4 be 13 94 b6 be
       0.36134365 -0.3917407 -0.35172984 -0.35659847
000210 af 67 c3 be 1b f7 d1 be 0b 92 b4 be e8 db d9 3e
       -0.38165042 -0.4100884 -0.35267672 0.42550588
000220 1f e9 b0 3e d2 95 d6 3e 10 7e a2 be 23 1c b5 be
       0.34552857 0.4191118 -0.31736803 -0.3537303
000230 94 98 3a bd 26 59 af 3e d1 fb cf 3e e5 22 88 3e
       -0.045555666 0.34247702 0.40621808 0.26589122
000240 15 a8 3a 3e 2a 0b ce be ca 18 b8 3e 74 0b 18 3f
       0.1822818 -0.40242893 0.35956413 0.59392476
000250 fc 40 ea 3e 70 31 05 3d bd ca 05 bf 85 20 d1 be
       0.45752704 0.03251785 -0.5226248 -0.40845123
000260 34 32 8f be 74 34 8f 3e 41 8f c8 3e 36 1d 89 3e
       -0.2796799 0.27969706 0.39171794 0.267801
000270 53 c7 9c 3e ea 87 aa be 90 95 f9 3e 29 92 d4 be
       0.30620822 -0.3330682 0.4874692 -0.4151776
000280 a5 90 0b 3f c6 77 e6 3e db 37 a9 be f4 2b f9 3e
       0.54517585 0.45013255 -0.33050427 0.48666346
000290 6d b7 e2 3e c6 da f3 be 55 e0 f9 3e ba ee d6 be
       0.44280568 -0.47627848 0.48803964 -0.4197901
0002a0 79 75 f5 be 14 a0 f5 be d6 ec b3 3e 0f 66 e9 3e
       -0.47941187 -0.47973692 0.3514163 0.45585677
0002b0 d5 bd d2 be 8c 13 c3 be b9 59 00 bf 4d 3c dc be
       -0.41160455 -0.3810085 -0.50136906 -0.43014756
0002c0 65 0a 09 bf f4 86 b1 3e 9e ad dd be 70 4a e0 be
       -0.53531486 0.34673274 -0.43296522 -0.4380679
0002d0 07 80 dd be b2 57 ac 3e 89 b2 b7 be 34 47 51 3e
       -0.4326174 0.33660656 -0.358784 0.20437318
0002e0 b3 52 00 bf f2 c5 d6 3c da 78 a9 3e 17 2a de 3e
       -0.5012619 0.026217435 0.33100015 0.43391487
0002f0 f9 2e cf be 5c e0 db 3e 56 7a e8 be fc 6f 86 be
       -0.40465525 0.4294461 -0.45405835 -0.26257312
000300 31 05 ea be 0a 1d ca be dd c0 0a bf 14 09 17 3f
       -0.45707086 -0.3947528 -0.54200536 0.5899823
000310 12 51 1b 3f 2e 06 21 be c9 16 0f bf b7 0e c0 be
       0.6067058 -0.15725014 -0.5589414 -0.37511227
000320 17 62 11 3d 58 c6 7f 3e db 60 f7 be ca 4c 07 3e
       0.035493936 0.24978006 -0.48316082 0.13212886
000330 14 68 6a 3e 00 74 f8 3e 30 7a 19 bf f2 b4 0b bd
       0.22891265 0.48526 -0.5995207 -0.03410811
000340 da 69 fb be b1 ef 08 3f 32 d7 3b 3e 47 b2 ea 3e
       -0.49104196 0.5349074 0.18343809 0.4583914
000350 62 ac a0 bd 1f 3a d5 3e 97 91 00 bf 1b 5a eb 3e
       -0.078453794 0.41645905 -0.5022215 0.45967183
000360 a8 d5 90 be 28 2f 17 bf db eb 11 bd 58 f8 10 bf
       -0.28288007 -0.5905633 -0.03562532 -0.5662894
000370 4c 12 83 be 3e 95 66 bd 09 84 d1 3e a4 5a da 3e
       -0.25599897 -0.056294672 0.40921047 0.42647278
000380 9d be e8 be 0d bf c3 be fd 89 01 bf cb 44 04 bf
       -0.45457926 -0.38231698 -0.5060118 -0.5166747
000390 3b 58 17 3f 98 4d d9 3e 0e f7 de bd f2 52 18 be
       0.59119004 0.42442012 -0.10886966 -0.14875391
0003a0 a5 a9 57 3e fb f7 63 3e af 74 de be 57 86 07 bf
       0.21060808 0.22262566 -0.43448398 -0.5293936
0003b0 8e 64 91 be 06 68 0d bf ee 8a 6e 3e ce c6 0b 3f
       -0.2839703 -0.5523685 0.23295185 0.54600227
0003c0 1a 74 08 3f d0 4c 91 3e 57 98 a9 3e e9 36 80 3e
       0.53302157 0.28378916 0.3312404 0.25041893
0003d0 f1 7b fb be a9 c1 e3 3e 07 f4 ec be bb 07 43 be
       -0.49117997 0.44483688 -0.46279928 -0.19045918
0003e0 1b 6f 0b bf e7 8c f7 3e 00 43 09 3f b7 2b e3 be
       -0.5446641 0.48349687 0.5361786 -0.4436929
0003f0 30 23 05 3f a3 20 f8 be c7 56 25 3f f0 99 ec be
       0.52006817 -0.484624 0.64585537 -0.46211195
