TP4/runs/mlp.pt (torch, 371317 bytes, 4 tensors)

net.0.weight f4 [64, 1433]
0	0x3bdd117b	0.0067464686
1	0x3d8b85f8	0.06812662
2	0xbc548682	-0.012971522
3	0x3d8b7ff5	0.06811515
4	0xbdaf0d67	-0.08547478
5	0x3cf12646	0.029437196
6	0xbc8af53c	-0.01696264
7	0xb4350168	-1.685745e-07
8	0x346a4fc9	2.1821974e-07
9	0x3494e8fe	2.7736672e-07
10	0x350af8ef	5.177125e-07
11	0xb3b9d3e3	-8.653276e-08
12	0xbdd680fc	-0.104738206
13	0x3cba757c	0.022761099
14	0x343c9988	1.7564719e-07
15	0xbd3fe15c	-0.04684578
16	0x34f5d84b	4.579218e-07
17	0xbd1338a3	-0.035942685
18	0x34b0e375	3.294805e-07
19	0x3e18d5a1	0.14925243
20	0x348f2069	2.6659407e-07
21	0xb45817cc	-2.0125225e-07
22	0xb4082fca	-1.2683373e-07
23	0x3d95e0fb	0.07318302
24	0x33c5cef4	9.211172e-08
25	0xbd335218	-0.043779463
26	0xbd87f960	-0.066393614
27	0xbd329d41	-0.043607
28	0xbcaf1e7d	-0.021376843
29	0xb5126360	-5.453385e-07
30	0xbb5da61d	-0.0033820935
31	0xb4e7a3f0	-4.3146383e-07
32	0x34eb1ad5	4.3791684e-07
33	0xb437f36c	-1.713176e-07
34	0xb47b9997	-2.3432072e-07
35	0xbd062225	-0.032747407
36	0xb3bb7895	-8.7298e-08
37	0xb50f672f	-5.3421803e-07
38	0xbd4c89fc	-0.04993628
39	0x3ca38ed6	0.01996557
40	0x3b9ff323	0.004881279
41	0xbd678916	-0.05652722
42	0xb4a2d004	-3.0326203e-07
43	0xb428a255	-1.5705275e-07
44	0xbc3928eb	-0.0113012595
45	0xbda4a6cb	-0.08039626
46	0xb4d432bc	-3.952499e-07
47	0xbc27de3d	-0.010245857
48	0xbb8a1392	-0.0042137587
49	0xb4df6c13	-4.161562e-07
50	0xbc9035fa	-0.017603863
51	0xbe20bc61	-0.15696861
52	0xbd3aae7c	-0.045576558
53	0xb4eda381	-4.4263655e-07
54	0x3d6b7a2d	0.057489563
55	0xb4609a34	-2.0917724e-07
56	0x3cb17f18	0.021667048
57	0x3cff6be7	0.031179382
58	0xbc3bcf34	-0.011462975
59	0x3d7d36ac	0.061819717
60	0xb43c9d14	-1.7566009e-07
61	0x3d5dfa30	0.054193676
62	0xbb397709	-0.002829971
63	0x3c846d83	0.0161655
64	0xbd07a250	-0.033113778
65	0x3c3931fd	0.011303422
66	0xb45b4c21	-2.042366e-07
67	0xbb62691c	-0.0034547513
68	0xb44213e3	-1.8074893e-07
69	0xb44374c9	-1.8203276e-07
70	0xbc84c563	-0.016207403
71	0x3388ad5e	6.364529e-08
72	0x3d0e3371	0.034717027
73	0x34b029d9	3.2813003e-07
74	0xb4f6f5cf	-4.599992e-07
75	0xb4253845	-1.5387293e-07
76	0x379ee956	1.8943723e-05
77	0xbd82abfa	-0.06380458
78	0x3cbbe2b1	0.022935243
79	0xb42570b7	-1.5407828e-07
80	0x3ca198cb	0.019726178
81	0x3d7d0652	0.061773606
82	0x3abe7461	0.0014530533
83	0xbbf16b29	-0.007367511
84	0x34dec6ee	4.1495463e-07
85	0x3d0e282c	0.03470628
86	0x3c928e0b	0.017889997
87	0xb4acdacd	-3.2196695e-07
88	0xbe006fbb	-0.12542622
89	0xbcd33391	-0.025781425
90	0xb3f69583	-1.1482464e-07
91	0xba66ddc5	-0.000880685
92	0x3d8494a2	0.06473662
93	0xbdc2e712	-0.095167294
94	0x3797ba3e	1.8087328e-05
95	0xb3f422d3	-1.136847e-07
96	0xb523d18b	-6.1027157e-07
97	0x3d68ae2d	0.056806732
98	0xbc01d68d	-0.007924688
99	0xbcaab30d	-0.020837331
100	0x3ca9b2ec	0.0207152
101	0x345c1187	2.0495473e-07
102	0xbd6a517c	-0.057206616
103	0x3ca22a07	0.01979543
104	0xbd1423a6	-0.03616681
105	0x3cad2ff8	0.021141037
106	0xbca252c4	-0.019814856
107	0x3cff9510	0.031199008
108	0xbd96a806	-0.07356267
109	0x3cb6033f	0.022218345
110	0x34885f96	2.5401522e-07
111	0xb3696d75	-5.434909e-08
112	0xb43fd1e2	-1.7864616e-07
113	0x34d06d8e	3.882273e-07
114	0x343370b1	1.6711671e-07
115	0xb3b160e9	-8.2598326e-08
116	0xb7aeebaf	-2.0852165e-05
117	0xb48fe544	-2.6802638e-07
118	0x3dfa8d41	0.12233973
119	0x3c5b6e2e	0.013392968
120	0x3cf81483	0.030283218
121	0xbd291f0c	-0.041289374
122	0xbd23f143	-0.040025007
123	0xbcdf61e3	-0.027268356
124	0x3d6ce505	0.057835598
125	0xbbeb9396	-0.0071892245
126	0x3cabe280	0.020982027
127	0x33bf197d	8.898767e-08
128	0x3d2ee32b	0.042697113
129	0xbcb1fc86	-0.021726858
130	0x3e031ab2	0.12803152
131	0xbc6f50bf	-0.014606654
132	0x3ccda224	0.025101729
133	0x3a5f3d00	0.00085158646
134	0xb431c555	-1.6556199e-07
135	0x3cbc5e2f	0.022994129
136	0x3d3b790e	0.045769744
137	0xb4d96146	-4.0490175e-07
138	0xb464476c	-2.1260138e-07
139	0xbc9c19ac	-0.01905521
140	0x3d8f8994	0.07008663
141	0x34ec473a	4.401025e-07
142	0x32d1f48c	2.444201e-08
143	0x3c9b706a	0.018974502
144	0x343b191d	1.7424868e-07
145	0xb28c3057	-1.6320127e-08
146	0x3cbd19ad	0.023083532
147	0xb50e1ce9	-5.294119e-07
148	0xb51c662c	-5.826321e-07
149	0xbd6c32a8	-0.057665497
150	0x3bebc9e9	0.0071957004
151	0xbd37d8c1	-0.044884447
152	0x33f7d8f0	1.15412945e-07
153	0x3bc69329	0.0060600233
154	0xbd00ce3b	-0.031446677
155	0x3c968d4e	0.018377926
156	0x34127c33	1.3642493e-07
157	0x3cd6fe2c	0.026244245
158	0x3c80d928	0.015728548
159	0x3c80ad0f	0.01570752
160	0x3d64b8ac	0.05584018
161	0xb3a141b5	-7.509099e-08
162	0x3d0574c3	0.032582056
163	0xb473fb77	-2.2722621e-07
164	0xb4a49645	-3.0656716e-07
165	0xb344e3b9	-4.584192e-08
166	0x344619e3	1.8449605e-07
167	0x3d129200	0.035783768
168	0x3e5e8391	0.21729876
169	0xb48b8d0b	-2.599339e-07
170	0x33de2aeb	1.0345487e-07
171	0x33b37219	8.356091e-08
172	0xbd1bd15d	-0.03804146
173	0x3da868b8	0.082230985
174	0xbd133f82	-0.035949238
175	0x348cb30d	2.620731e-07
176	0x3cffb85e	0.031215843
177	0x346b1eb3	2.1897249e-07
178	0x34d4a89c	3.9610757e-07
179	0xbd72784b	-0.05919675
180	0x33122991	3.403108e-08
181	0xbcf5fb8e	-0.030027177
182	0xb423b872	-1.5247659e-07
183	0xb856f9f5	-5.1254367e-05
184	0xb4a811c8	-3.1305376e-07
185	0xb4663fe2	-2.144366e-07
186	0xbc9032ba	-0.017602313
187	0x3e1ffa83	0.15622906
188	0xbd133c8b	-0.03594641
189	0xb45dec79	-2.0668257e-07
190	0xbd22495d	-0.039620746
191	0xb71fcf45	-9.525397e-06
192	0x3d3c8543	0.046025526
193	0x351952d0	5.711745e-07
194	0xbad30472	-0.0016099347
195	0x3c8072da	0.015679765
196	0x3d66f765	0.056388278
197	0xb32de3cb	-4.0486878e-08
198	0xb43696d8	-1.7004947e-07
199	0xb3daf09e	-1.0195184e-07
200	0xbb62cc72	-0.0034606722
201	0xb28d6a79	-1.6462979e-08
202	0x3473669e	2.266847e-07
203	0xbcd1bd21	-0.025602879
204	0xb3674b14	-5.3852162e-08
205	0xbd942e5f	-0.07235407
206	0xb4d51809	-3.969183e-07
207	0x3cf1358f	0.029444484
208	0x3d433975	0.047662217
209	0xb41fc694	-1.4880271e-07
210	0xb4d13751	-3.8969532e-07
211	0x3d980fca	0.074248865
212	0x3b2707ea	0.0025486895
213	0x3cd36833	0.025806522
214	0xbc0e4804	-0.008684162
215	0x351ce507	5.844781e-07
216	0x34347ae0	1.6808508e-07
217	0x3d62c717	0.055365648
218	0xb44e7f23	-1.9231497e-07
219	0x34909221	2.6928413e-07
220	0x34dd258f	4.1191785e-07
221	0xb4ca74e3	-3.7710478e-07
222	0x3af05bfe	0.0018337963
223	0xb4416918	-1.8012759e-07
224	0xbd31cc54	-0.043407753
225	0x3ddebeeb	0.108762585
226	0xbd6a6572	-0.057225652
227	0x345bfb64	2.048742e-07
228	0xbc32fb23	-0.0109241335
229	0xb515c963	-5.579988e-07
230	0x35118332	5.4207624e-07
231	0x3417f797	1.4153044e-07
232	0xbd247809	-0.040153537
233	0xbd5a6c56	-0.053325973
234	0x3c50afb2	0.0127372015
235	0x33ef8600	1.1153679e-07
236	0x330e0cab	3.3073473e-08
237	0xbc9aa203	-0.018876081
238	0x3cac32c6	0.021020304
239	0x34a9c4b1	3.1621815e-07
240	0x3c881ba7	0.016614748
241	0xb4baadac	-3.4771563e-07
242	0x3bf78c23	0.0075545474
243	0x34d6083d	3.98666e-07
244	0x341d0489	1.4623414e-07
245	0x34156717	1.391421e-07
246	0x34945f90	2.763668e-07
247	0x3de2d6ba	0.11076112
248	0xb47beab0	-2.3461575e-07
249	0x3c996c60	0.018728435
250	0x3cdd3e11	0.027007135
251	0x3495e29e	2.7918298e-07
252	0x34372ef6	1.7060287e-07
253	0xb48b9370	-2.5998042e-07
254	0x33aa90e3	7.9425966e-08
255	0xb466fdbc	-2.1512727e-07

net.0.bias f4 [64]
0	0x3e1e3419	0.15449561
1	0x3e33aed7	0.17547165
2	0x3e25a8e7	0.16177712
3	0x3e14775f	0.14498661
4	0x3e6323f5	0.22181685
5	0x3e3fd65e	0.18734118
6	0x3e49eb63	0.19718699
7	0x3e988f1e	0.2979669
8	0x3e65fb81	0.22459222
9	0x3ea9ee1b	0.33189473
10	0x3e3fcb6b	0.18729942
11	0x3e189274	0.14899617
12	0x3e503908	0.20334256
13	0x3e047a10	0.12937188
14	0x3e5d4495	0.21608193
15	0x3e2dfc11	0.16990687
16	0x3e0e1df1	0.13878609
17	0x3e516adc	0.2045092
18	0x3da3efc1	0.08004714
19	0x3e4480a7	0.19189702
20	0x3e28ce22	0.16484883
21	0x3e28af9e	0.16473243
22	0x3e48fd42	0.1962786
23	0x3e41cf18	0.18926656
24	0x3e70fc90	0.23533845
25	0x3e1ed4c8	0.15510857
26	0x3e70ce20	0.2351613
27	0x3e19dfb2	0.15026739
28	0x3e360bf6	0.17778
29	0x3e6b4f7a	0.22979537
30	0x3e2c34b0	0.16816974
31	0x3e937ec6	0.28807658
32	0x3e71335f	0.23554753
33	0x3e0ca729	0.13735642
34	0x3e2f67e8	0.17129481
35	0x3e870fc0	0.26379204
36	0x3e4420b0	0.19153094
37	0x3e15a768	0.14614642
38	0x3e3dd8ae	0.18539688
39	0x3e465557	0.19368492
40	0x3e69ee54	0.22844821
41	0x3e73a114	0.23791915
42	0x3df618d5	0.12016455
43	0x3e2104b2	0.15724447
44	0x3e1b8a39	0.15189447
45	0x3e22696f	0.15860532
46	0x3e8b156e	0.27164787
47	0x3da2510e	0.07925616
48	0x3e319ecb	0.17345731
49	0x3e6631d1	0.22479941
50	0x3e41aa84	0.18912703
51	0x3dee91c5	0.11648897
52	0x3ddf0698	0.108899295
53	0x3e0c04f9	0.13673772
54	0x3dc6a723	0.096998475
55	0x3e82e414	0.25564635
56	0x3e175810	0.14779687
57	0x3e263e82	0.16234782
58	0x3d325294	0.043535784
59	0x3e4e7378	0.20161235
60	0x3e1781dd	0.14795633
61	0x3e800ae3	0.25008306
62	0x3e13cf13	0.14434461
63	0x3e2839be	0.16428277

net.3.weight f4 [7, 64]
0	0xbea05727	-0.31316492
1	0xbea18ae2	-0.31551272
2	0xbeafff7a	-0.343746
3	0xbead497f	-0.33845136
4	0xbe8e2d68	-0.27769017
5	0xbee22755	-0.44170633
6	0xbedc79f8	-0.43061805
7	0xbebf0f30	-0.37316275
8	0xbd91a877	-0.0711221
9	0xbeb53a7f	-0.3539619
10	0x3ebba7be	0.36651415
11	0x3eaf1793	0.34197673
12	0x3e94afa7	0.29040262
13	0xbeb9c349	-0.36281803
14	0x3e82570d	0.2545704
15	0xbeb00ccc	-0.34384763
16	0x3eb8f19e	0.3612184
17	0x3e6dbd18	0.23216665
18	0x3ebba341	0.3664799
19	0xbeafb289	-0.343159
20	0xbe6238f5	-0.2209204
21	0xbebe68ad	-0.37189236
22	0x3e32abdd	0.17448373
23	0xbeb8355c	-0.3597821
24	0xbeb5504d	-0.35412827
25	0xbec49a95	-0.38399187
26	0x3ea02f27	0.31285974
27	0x3e95f956	0.2929179
28	0x3ec762c2	0.38942534
29	0xbee57f42	-0.44823653
30	0xbeda24f2	-0.42606312
31	0xbe872d2f	-0.2640166
32	0x3e396b09	0.18107237
33	0x3ec51365	0.3849136
34	0x3eb76900	0.35822296
35	0x3e76e355	0.24110158
36	0xbe961b82	-0.29317862
37	0xbedc2720	-0.429986
38	0x3e7d46c4	0.24734026
39	0x3ead29a2	0.33820826
40	0xbd06329b	-0.032763105
41	0xbe95fdcc	-0.29295194
42	0x3ebee214	0.3728186
43	0x3e2bd457	0.1678022
44	0xbeac14c0	-0.3360958
45	0xbebfd2c1	-0.3746548
46	0xbebbf6c3	-0.36711702
47	0x3e6e19f7	0.23252092
48	0x3e83c69c	0.25737464
49	0xbe8f0b19	-0.27938154
50	0xbed3d0d7	-0.4137027
51	0x3ea9d2cb	0.33168635
52	0xbea6ef2a	-0.32604343
53	0xbe53d10b	-0.20685212
54	0x3e9b4648	0.30327058
55	0x3db235d6	0.08701675
56	0xbed1ddb3	-0.40989456
57	0x3e505a02	0.20346835
58	0x3eb4030b	0.35158572
59	0xbec74b3c	-0.38924587
60	0x3ea0ef62	0.31432635
61	0x3e6ce6f2	0.23134974
62	0xbe89e4b5	-0.26932302
63	0x3eb72472	0.35769993
64	0x3eb53d92	0.35398537
65	0xbe89dda2	-0.26926905
66	0x3eac56e2	0.33660036
67	0xbe8036fb	-0.25041947
68	0xbea5ef06	-0.32408923
69	0x3e7344ff	0.23756789
70	0xbed02425	-0.40652576
71	0xbeb0a103	-0.34497842
72	0xbed85ee4	-0.42259896
73	0xbea8513e	-0.32874483
74	0xbe89ef8e	-0.26940578
75	0x3e9c1230	0.30482626
76	0x3ea3e347	0.32009336
77	0x3eae0e40	0.33995247
78	0xbe9ec737	-0.31011364
79	0xbe7a1210	-0.24420953
80	0xbe98d2e4	-0.29848397
81	0x3e8238cf	0.25433967
82	0xbe984742	-0.29741865
83	0x3e5415f9	0.20711507
84	0xbe73c609	-0.23806013
85	0x3ebc9407	0.36831686
86	0x3e790c51	0.24321105
87	0x3eaee805	0.34161392
88	0x3e866768	0.26250768
89	0xbe9b319a	-0.3031128
90	0xbec1097a	-0.37702543
91	0x3eb730db	0.3577946
92	0x3ea01a40	0.31270027
93	0xbec52f6e	-0.38512748
94	0x3e94bc96	0.2905013
95	0xbe9d5840	-0.30731392
96	0xbebd3d82	-0.3696099
97	0x3ec02289	0.37526348
98	0xbea58903	-0.32331094
99	0xbed8e2fe	-0.4236068
100	0x3e8c5068	0.27405095
101	0xbeb30daf	-0.34971377
102	0xbea620d0	-0.3244691
103	0xbe9d4842	-0.3071919
104	0x3e918fa8	0.28429914
105	0xbeb5149f	-0.35367295
106	0xbeb8a48e	-0.36063045
107	0x3e9c1743	0.30486497
108	0xbeb2f9dc	-0.34956253
109	0xbea69fa4	-0.3254367
110	0xbeb6ca5a	-0.35701257
111	0xbeac7e29	-0.33690003
112	0xbeabb052	-0.3353296
113	0x3e956730	0.29180288
114	0xbe8eb9b1	-0.27876046
115	0xbead1bbc	-0.33810222
116	0x3eadf135	0.3397309
117	0x3ebabe25	0.36473194
118	0xbeb08aa4	-0.34480774
119	0x3e98c3a4	0.29836762
120	0x3ea52a80	0.32258987
121	0xbead446c	-0.33841264
122	0xbea1ff5e	-0.31640142
123	0x3ea7a5d5	0.32743707
124	0xbecfe528	-0.4060452
125	0x3e9f691b	0.31134877
126	0x3e905d36	0.28196114
127	0xbe0a1266	-0.13483581
128	0x3e9d705a	0.3074978
129	0xbdfba04f	-0.12286436
130	0xbe9c8f80	-0.30578232
131	0x3eaf9ddd	0.34300128
132	0x3e8bf6c0	0.27336693
133	0xbea5944c	-0.32339704
134	0xbecf98ab	-0.40546164
135	0x3ebf1764	0.37322533
136	0xbecd4ff1	-0.40100053
137	0x3e9286c5	0.28618446
138	0x3ea7926c	0.327289
139	0xbea65414	-0.32486022
140	0xbeacacd8	-0.3372562
141	0xbe935f59	-0.28783682
142	0x3e5b7fa4	0.2143541
143	0xbe764e10	-0.24053216
144	0xbe547c8b	-0.20750634
145	0x3e41c9f9	0.18924703
146	0xbecb2455	-0.39676157
147	0x3e873c0c	0.26413
148	0x3eb8860f	0.3603978
149	0xbecfc898	-0.40582728
150	0xbec2588b	-0.37958178
151	0x3ddeddec	0.10882172
152	0xbe8923d4	-0.26785147
153	0xbeb5bba7	-0.3549473
154	0x3ea0cfe5	0.3140861
155	0xbea2e75f	-0.31817147
156	0xbea8e35b	-0.32985958
157	0x3e75c41a	0.24000588
158	0xbeadedbb	-0.33970436
159	0x3eb5bd2f	0.35495898
160	0x3ebf801a	0.3740242
161	0x3e4e79c1	0.20163633
162	0x3e95f76c	0.2929033
163	0x3eaaa50a	0.3332904
164	0x3e9c46bd	0.3052272
165	0xbe9ad036	-0.30236977
166	0xbe5d2bfc	-0.2159881
167	0xbe9c75e8	-0.30558705
168	0x3e2566d3	0.16152506
169	0x3e962c94	0.29330885
170	0xbe877118	-0.2645347
171	0xbec1d5aa	-0.37858325
172	0x3ec53c6d	0.38522664
173	0xbe70f68d	-0.23531552
174	0x3e98a6eb	0.29814848
175	0xbe47b6fe	-0.195034
176	0xbed4bbc4	-0.41549504
177	0x3eaf9e05	0.34300247
178	0x3ebad672	0.36491734
179	0xbebbc50a	-0.36673766
180	0x3dfa35c6	0.12217288
181	0x3eb52a23	0.3538371
182	0xbeba78f0	-0.36420393
183	0xbf04e42e	-0.51910675
184	0xbea4bbf9	-0.32174662
185	0x3e8beeec	0.2733072
186	0xbeb617d5	-0.35565057
187	0xbed12a80	-0.40852737
188	0x3d4f7a54	0.05065377
189	0x3e831bcc	0.25607145
190	0xbe947fcd	-0.29003754
191	0xbe88bebe	-0.26708025
192	0x3eabaa00	0.33528137
193	0x3ec428c3	0.3831235
194	0xbe9ada7d	-0.30244818
195	0x3e924da9	0.28574875
196	0xbebf944f	-0.37417838
197	0xbdb66adf	-0.08907103
198	0x3e956501	0.29178622
199	0xbe8e34a9	-0.27774552
200	0xbec8cca0	-0.39218616
201	0xbe94b9ea	-0.2904809
202	0xbe8deabd	-0.27718154
203	0x3da0f505	0.07859234
204	0x3dc82873	0.0977334
205	0x3eba5c38	0.36398482
206	0xbeb98fb5	-0.36242452
207	0x3ec90683	0.3926278
208	0x3ea64374	0.32473338
209	0xbea82403	-0.32839975
210	0x3e7355d3	0.23763208
211	0xbeadd68b	-0.33952746
212	0xbe918856	-0.2842433
213	0xbeae3835	-0.34027258
214	0x3e80c09e	0.25146955
215	0xbe9f4c60	-0.31112957
216	0x3e6f1413	0.23347501
217	0x3ebe5090	0.3717084
218	0xbe8c29a6	-0.27375525
219	0x3e2f441d	0.17115827
220	0xbe9b74bd	-0.30362502
221	0x3e858ef4	0.26085627
222	0x3e8805a8	0.26566815
223	0xbe79b3af	-0.2438495
224	0x3e6fd9f6	0.23422989
225	0xbe817459	-0.2528408
226	0xbe8638c3	-0.2621518
227	0xbed8d353	-0.42348728
228	0xbe7c6f84	-0.24651915
229	0x3eac976d	0.3370928
230	0x3e379027	0.17926084
231	0xbea4320a	-0.32069427
232	0xbeb90c1a	-0.36142045
233	0xbebaa868	-0.3645661
234	0x3e8f27ca	0.27960044
235	0x3e7dd2b6	0.24787411
236	0x3ebbf5d0	0.36710978
237	0x3e855c8e	0.26047176
238	0x3e9ab811	0.30218557
239	0x3e8c5dfd	0.27415457
240	0x3e4e6aa9	0.20157875
241	0xbeb6229e	-0.35573286
242	0x3e3c16fa	0.1836814
243	0x3e8a0b65	0.26961818
244	0x3ec64255	0.38722482
245	0xbe781194	-0.24225456
246	0x3e7d6bd2	0.24748161
247	0xbeebb2c2	-0.4603482
248	0x3e7c43e6	0.24635276
249	0x3eaaeb62	0.33382708
250	0xbea43ed0	-0.32079172
251	0xbeb7bb6f	-0.35885188
252	0xbe9e3c00	-0.3090515
253	0xbecb07bf	-0.39654347
254	0x3e899f01	0.26879123
255	0x3e93e78a	0.28887588

net.3.bias f4 [7]
0	0x3ddf8b2d	0.109152175
1	0x3df38462	0.118904844
2	0x3e70b822	0.23507741
3	0xbe1f867e	-0.15578648
4	0xbd43c09a	-0.0477911
5	0xbe036f2b	-0.12835376
6	0x3c50749a	0.0127231125
