TP4/runs/sage.pt (torch, 740529 bytes, 6 tensors)

conv1.lin_l.weight f4 [64, 1433]
000000 db a7 d1 bb cd f6 86 3c 50 68 5c 3c 00 7f 58 3c
       -0.0063981838 0.016475106 0.013452604 0.013213873
000010 9d 4a ac 3d 04 bc a3 3b e6 35 8e bb 55 d1 0f bb
       0.08412669 0.0049967784 -0.0043399213 -0.002194484
000020 eb ba 9c 3c 0f 57 00 bb 91 7f 26 3a b7 09 59 ba
       0.019132098 -0.001958314 0.00063514063 -0.00082793407
000030 88 7a ca b9 28 fd 46 bb 73 b6 73 3b 16 5a 7e 3b
       -0.00038619735 -0.0030363295 0.0037187606 0.003881102
000040 ba 2b 39 bc 17 ed 5c ba e6 6e 10 bc 3e b4 09 be
       -0.011301929 -0.0008427663 -0.008815503 -0.13447663
000050 f6 3a 32 34 88 5b a2 3b 6c 09 8d 3b 23 7b 1a bc
       1.6598992e-07 0.004954759 0.0043041017 -0.009428772
000060 9a ec 41 3b 2c 3a 8b 3c 7f d8 1a 3c 52 ae f0 ba
       0.0029590488 0.016995512 0.009451031 -0.0018362498
000070 18 5f bd 3a 1b b1 5e 3c 65 72 02 3d 69 fd 94 3a
       0.0014447896 0.01359203 0.031847376 0.0011367026
000080 c7 49 bd ba b9 c4 cf b8 bf 4b e2 3a 54 c5 60 3b
       -0.0014441543 -9.9071716e-05 0.0017265006 0.0034297304
000090 5a 78 03 bc ed 75 e2 3b 75 20 c6 3b 38 7a 88 3a
       -0.0080242995 0.0069110305 0.0060463496 0.0010412401
0000a0 ac 39 2b 3d b0 e4 a6 bc 16 48 26 bb 62 9e 13 3b
       0.041803047 -0.020372719 -0.0025372556 0.0022524823
0000b0 72 05 08 bb 87 4e 0f 3c 96 95 15 3b c4 44 50 3c
       -0.0020755199 0.00874675 0.0022824756 0.0127117075
0000c0 7b 51 84 39 b0 1d 9b ba 34 d9 55 3c 3e 4c ff bc
       0.0002523771 -0.0011834409 0.013052274 -0.031164285
0000d0 c6 51 be 3c 7f 14 e6 39 bf 4e 81 3c 3c 6b a6 bc
       0.023232352 0.0004388429 0.01578462 -0.020314805
0000e0 16 31 af 3c be d7 7d bb 33 57 a7 bc be b1 0a b9
       0.02138571 -0.0038733329 -0.020427322 -0.0001322692
0000f0 8f 62 b5 34 19 df 46 bd 7f df 84 3a 76 02 92 3c
       3.3785588e-07 -0.048552606 0.0010137408 0.01782344
000100 80 ae 99 3b f6 22 ed 3c 6f 5f 51 3c e9 40 96 bc
       0.0046899915 0.028947335 0.012779101 -0.018341498
000110 46 1b a1 ba 5d 54 12 3c dc 9a a9 3c 31 14 bc 3b
       -0.0012291453 0.008931247 0.020703726 0.0057397117
000120 f5 f9 20 bb 7d 50 2b bb a7 3d 30 3c 44 74 35 bc
       -0.0024563049 -0.0026140504 0.010756887 -0.011075083
000130 06 db 78 3c 4f 91 cc bc 71 ef 80 3c a2 95 95 3a
       0.015188938 -0.024971632 0.015739175 0.0011412392
000140 76 ff ba 3b 67 eb 6a 3c 5a 1c d4 3c f2 09 5f 3c
       0.005706723 0.014338351 0.025892425 0.013613211
000150 ec ce e3 3b 47 e7 62 bc 19 dd 59 3c 64 16 2c ba
       0.0069521572 -0.013849086 0.013297343 -0.0006564616
000160 6c de e0 bb 61 9c a0 bc eb 03 61 b9 18 b9 b9 3b
       -0.0068624523 -0.019605817 -0.00021459132 0.005667817
000170 51 66 22 3b 0a 7f ca 3d 4b f7 15 bb 25 ad 70 bc
       0.0024780224 0.09887512 -0.0022882994 -0.014689718
000180 05 15 b2 3b 10 cb a2 b9 ea 66 f6 3c 6e 40 14 bd
       0.0054346346 -0.0003105034 0.03007837 -0.036194257
000190 f9 63 ae bb 45 11 a6 ba c2 69 c3 bb 43 fd 88 bb
       -0.0053219763 -0.0012669942 -0.005963535 -0.004180582
0001a0 7b 16 1f bb 49 fe 91 b9 91 77 f6 3a e5 b8 3a 3a
       -0.0024274874 -0.00027846012 0.0018803944 0.00071228883
0001b0 41 30 03 3d c7 3f eb 3a cb 77 31 3a e8 bd 0b 3b
       0.03202844 0.0017948084 0.00067698647 0.002132291
0001c0 19 d1 07 3c 35 f5 81 34 9d a0 5c 3b 9f 3a 6a ba
       0.008289599 2.4206534e-07 0.003366507 -0.0008935127
0001d0 c7 59 15 3c 81 90 35 3b 3d 4e 43 bd e1 2e a0 3b
       0.009115643 0.002770454 -0.047682036 0.004888401
0001e0 69 7e 23 bc ac 09 96 38 91 06 3e 3c 68 ef 49 bc
       -0.009978869 7.154359e-05 0.011598245 -0.012325145
0001f0 9a 84 b7 bb e3 4c 98 bc 65 a9 fe bc 98 3a 51 bb
       -0.005600524 -0.01859135 -0.031086633 -0.0031925794
000200 75 91 61 bd 52 13 d7 ba 46 60 80 3a 4f 4f 4f bc
       -0.05507036 -0.0016408956 0.0009794317 -0.012653186
000210 32 e3 e0 3c 9e f4 a3 3b db d3 70 39 90 48 68 bd
       0.027452085 0.005003526 0.00022967106 -0.056709826
000220 86 fe dd ba 16 28 ed 3a 23 93 fe b9 06 d3 f7 3b
       -0.0016936816 0.0018093612 -0.0004855628 0.0075629978
000230 a0 ad 1e bd ec 78 b8 ba 47 d6 5d 3b c9 09 b5 bb
       -0.0387398 -0.0014074123 0.0033849643 -0.005524848
000240 40 ac 9d 37 46 9d c3 b3 6c 0a 8c 3b c7 10 98 3b
       1.8796069e-05 -9.109003e-08 0.0042737033 0.004640672
000250 98 ea 8e 3a e7 06 1c 3a ae 30 99 bb 95 17 09 bb
       0.0010903655 0.0005951956 -0.0046749925 -0.0020918597
000260 26 e4 66 bc 0d c4 55 bc 4e 95 08 bc 53 8b 07 bc
       -0.014092481 -0.01304723 -0.008336378 -0.008272964
000270 09 62 d4 ba d4 db b1 bb 53 74 38 3b c5 23 50 3b
       -0.0016203533 -0.005427817 0.0028145507 0.0031759602
000280 4d 42 46 bc be d6 42 b8 c4 2f b4 bc b3 f4 4f bb
       -0.012100768 -4.64532e-05 -0.021995433 -0.0031731545
000290 36 61 a1 bb 86 8a 30 3b 95 ad 88 3b 05 74 60 bb
       -0.0049249185 0.0026938035 0.004171083 -0.003424884
0002a0 34 11 bc 3c 2d e2 14 bc cf 5b 20 3c cd b3 58 3b
       0.022957422 -0.009087128 0.009787514 0.0033066154
0002b0 a6 f9 77 bb 15 48 4a 3a 43 35 be 3c 86 15 01 3c
       -0.003783801 0.00077164295 0.023218757 0.007878667
0002c0 3a 83 b2 bc ba 87 0f bc 71 45 c0 3b 5d bc 98 3c
       -0.02179109 -0.008760387 0.005867653 0.018644506
0002d0 5c 25 5e 3a 58 75 36 bc 8c e2 aa 3b da 89 a6 3b
       0.0008474195 -0.011136375 0.005214995 0.005082351
0002e0 2f 8d c0 3a 7b 58 c2 34 d0 27 92 3c 01 cd 38 3d
       0.0014690513 3.6199694e-07 0.01784125 0.045117382
0002f0 88 64 04 3c 4d 15 1c 3a 69 b4 d1 3a 55 43 04 3c
       0.008080609 0.0005954102 0.0015999201 0.008072694
000300 33 fc 3e bc d7 db 94 3a 4f b3 2f 3c 9b 2a 24 3c
       -0.011656809 0.0011357021 0.010723903 0.010019924
000310 85 c5 63 bb 61 e9 a3 ba c9 4e bc b9 6c db dd 3a
       -0.0034755182 -0.0012505465 -0.00035916854 0.0016926355
000320 aa f9 b8 3b d9 02 90 ba 50 8f f6 3b e9 c8 3d 3c
       0.0056449967 -0.0010987177 0.0075244084 0.011583545
000330 3a 9d e3 37 eb 1d 1d 3d 88 b4 48 3b e1 03 49 bc
       2.7133723e-05 0.03835861 0.0030625183 -0.012268991
000340 21 a7 dc bb 77 d5 68 bb f7 bc 57 3b 6b 88 1b 3d
       -0.0067337905 -0.0035527626 0.0032919028 0.037971895
000350 4f 7d eb bb 6f b4 06 bb d3 1e b4 3b b3 79 2d 3b
       -0.007186569 -0.0020554324 0.0054968386 0.0026470243
000360 d8 75 8c b9 be b7 4c bc 90 c5 00 bc 66 09 56 b7
       -0.0002679068 -0.012494979 -0.007859603 -1.2757582e-05
000370 18 c8 63 3b ee fc 98 3b c6 7f b0 ba e3 12 ba ba
       0.0034756716 0.0046688234 -0.0013465814 -0.0014196303
000380 01 f3 80 3c 11 48 79 bc 7c c0 0e 3b 11 70 fe bb
       0.015740873 -0.015214936 0.002178221 -0.007764824
000390 a2 3d b0 3b 95 0a 31 b9 f0 25 23 bb 7f bc 73 bb
       0.005378441 -0.00016883978 -0.0024894439 -0.003719121
0003a0 be c2 55 ba b7 f0 e4 3b c0 62 34 3d c6 e7 36 bc
       -0.0008154324 0.0069867033 0.044039488 -0.0111636575
0003b0 17 10 86 3b 3f aa 7e 3c fa 1b ca bc 7d c0 96 ba
       0.0040912735 0.0155435195 -0.024671543 -0.0011501458
0003c0 ec 0c 59 bc f0 d1 7e ba fb a9 8d bb 21 2f 00 3b
       -0.01324771 -0.0009720614 -0.0043232418 0.001955934
0003d0 f6 41 d2 bb 7b 24 fb 3b 80 2c 2c 3b a2 a7 55 bc
       -0.0064165546 0.007664261 0.0026271641 -0.013040455
0003e0 54 3a 83 bb 21 2b 12 3c 8c a8 cf bc 7c 65 23 3b
       -0.004004756 0.008921416 -0.025348924 0.0024932316
0003f0 6a e8 ad ba e5 30 3d bc 89 d2 ed 3b bf 3a 0a bb
       -0.0013268117 -0.011547302 0.0072577638 -0.0021092144

conv1.lin_l.bias f4 [64]
000000 2d ba 91 3d d3 75 b9 3d 7b e9 f4 3d 04 21 c3 3d
       0.07115588 0.09055676 0.11958595 0.095277816
000010 95 38 d3 3d 25 6d 76 3d ea fd 85 3d 89 19 ad 3d
       0.103135265 0.060162682 0.06542571 0.08452136
000020 9c d7 c6 3d 95 9d c4 3d db a0 d4 3d 92 05 2b 3d
       0.09709093 0.09600369 0.10382243 0.04175336
000030 7f e9 bf 3d ee ae b8 3d 56 dc 88 3d 53 7d b0 3d
       0.09370708 0.0901774 0.06682651 0.08617654
000040 4d c0 b6 3d f4 20 be 3d 47 04 6f 3d 24 e8 9d 3d
       0.08923397 0.09283629 0.05835369 0.07710293
000050 5c 63 0a 3e e4 01 28 3e 5c bd ce 3d 8c 37 9c 3d
       0.13514465 0.16406971 0.10094711 0.07627782
000060 c0 53 c8 3d 27 96 05 3e 2b 2e d2 3d 34 79 c7 3d
       0.09781599 0.1304556 0.10262712 0.097399145
000070 9e b5 96 3d 73 a8 1c 3e 93 4a f3 3d cf 93 ba 3d
       0.073588595 0.15298633 0.11879458 0.091102235
000080 9d c9 c7 3d 83 74 e2 3d 8f 09 d3 3d d4 87 ee 3d
       0.097552516 0.11057379 0.103045575 0.11647001
000090 58 5b 8c 3d 01 24 e8 3d 1f 1c 8e 3d 69 f2 ae 3d
       0.0685336 0.11334992 0.069389574 0.0854233
0000a0 ae 2f b2 3d 60 e0 b5 3d 67 45 db 3d ef 6d db 3d
       0.087005004 0.08880687 0.10706597 0.107143275
0000b0 86 dd 93 3d 79 30 03 3e e2 4e de 3d 96 95 04 3e
       0.072199866 0.1281146 0.108548895 0.12947688
0000c0 89 70 e6 3d 6c 41 8b 3d 9c 33 10 3e 9e 4b 90 3d
       0.11251933 0.067995876 0.14082187 0.07045673
0000d0 17 a8 cc 3d f3 b4 7e 3d f2 e9 e7 3d 23 86 b2 3d
       0.09992998 0.062184285 0.113239184 0.08716991
0000e0 44 3c c4 3d 68 4f 20 3d 33 fd a7 3d 1b 8e 35 3d
       0.09581807 0.039138228 0.08202591 0.044324975
0000f0 00 60 b7 3d a9 94 6b 3d f9 f9 8d 3d d0 47 b7 3d
       0.089538574 0.05751482 0.06932444 0.08949244

conv1.lin_r.weight f4 [64, 1433]
000000 aa b5 02 3b 9d 63 07 3d 6b 87 48 3c dd c0 46 3b
       0.0019944706 0.033053983 0.012239317 0.0030327358
000010 24 af 75 3d b9 88 8c 3a 9c 65 2d 3c bd e7 d9 3a
       0.05998148 0.0010721899 0.010583308 0.001662485
000020 97 85 7f 3c 73 a6 6a ba ba 77 5c b4 ad 70 34 bb
       0.015595815 -0.00089511945 -2.0532653e-07 -0.002753298
000030 76 59 23 bc 51 6e d6 3b f8 b9 73 3b 3f 7a e2 3b
       -0.00997006 0.0065439125 0.0037189703 0.0069115455
000040 45 c2 41 ba aa 5d b8 bb ea 45 6e bb 9c 8a 05 be
       -0.0007391314 -0.0056264 -0.003635759 -0.13041157
000050 b1 1a 37 b4 e0 2c 0c 3c 5e d5 b0 b9 d8 4d d7 bc
       -1.7052913e-07 0.008555621 -0.00033728307 -0.026282236
000060 4c d5 4b b4 ea 72 2d 3d 9f c2 d0 3c df 04 f4 3a
       -1.8983445e-07 0.04234592 0.025483428 0.0018617174
000070 ce 1c 83 3c b5 48 79 3b 8b 19 f2 3c c4 4f 08 b5
       0.016004946 0.0038037722 0.029553195 -5.078002e-07
000080 3b dc de b4 48 ac f9 3a 1d da 84 3b 0f 3c db 3a
       -4.151096e-07 0.0019048536 0.0040543214 0.0016726273
000090 80 13 ac bb 19 85 c5 ba a1 d1 5a 3d c9 1a 83 ba
       -0.005251348 -0.0015069573 0.053422574 -0.001000249
0000a0 00 1b 23 3d fe 7b 59 bc e0 09 68 bb 3d 74 8d 3a
       0.03982067 -0.013274191 -0.0035406277 0.0010792088
0000b0 c4 78 4e bc 4c 3a 9f 3c 67 18 fe 3a ab 09 bc 3c
       -0.012602035 0.019436978 0.0019385935 0.022953829
0000c0 54 fe b6 3b 05 db 11 b4 23 e1 78 3c 17 da 71 bd
       0.0055845175 -1.3583856e-07 0.0151903955 -0.059045877
0000d0 36 69 10 3d 96 d1 e9 33 ba b8 f3 3c fd fa 7c bb
       0.035256587 1.08880315e-07 0.02975117 -0.003860175
0000e0 46 53 c2 3c 17 48 40 bb 5b 9d 2c bd 77 c0 3c 3c
       0.023721348 -0.0029339844 -0.042142253 0.011520497
0000f0 49 ec 37 34 4e e9 fa bc e5 3e da ba fe 77 79 3c
       1.7129163e-07 -0.030628826 -0.0016650824 0.015226362
000100 9a 0e 5c 3c bb 89 20 3d 23 9c 09 3d 1b 5c ad bb
       0.013431216 0.03919385 0.03359617 -0.005290521
000110 32 91 8e b4 d3 4e 91 3b 75 a7 fa 3c 61 bd 03 ba
       -2.6555205e-07 0.0044344454 0.030597428 -0.0005025473
000120 4d da 18 bc 36 04 e0 b9 c9 83 ba 3b b8 cf c5 bb
       -0.009329391 -0.00042727747 0.0056919795 -0.006036725
000130 3d 19 83 3c 7b 47 09 bd 92 c3 0a 3c ac f0 c0 3a
       0.016003245 -0.033515435 0.008469479 0.0014720163
000140 e7 ca 80 bb 89 de 28 bb 69 15 26 bb fe b0 ce 3c
       -0.003930438 -0.0025767407 -0.0025342351 0.02523088
000150 5a 35 12 3c ab e9 72 bc 4f 5e aa bc 54 39 f7 ba
       0.008923853 -0.014826219 -0.020796923 -0.001886169
000160 c9 ae a7 bc f3 8b 7f bc 4e ca 26 ba 03 0a e8 3a
       -0.020469086 -0.015597331 -0.0006362543 0.0017703179
000170 e3 72 8a 3c 6e a5 b0 3d 6e 62 43 bc 5f 1d 38 bc
       0.016900485 0.08625303 -0.011925323 -0.011237471
000180 cc 30 d6 3b de 41 5c 3c 4d e4 07 3d 87 6f 0e bd
       0.0065365788 0.013443438 0.03317671 -0.03477433
000190 12 f1 50 bc 0b e4 a5 34 95 5b af bc 80 c5 db bc
       -0.012752788 3.0899568e-07 -0.021405974 -0.026827574
0001a0 86 3f 9f bb fe 29 ee bb 2d ad fd 3b e8 8a 46 bb
       -0.0048598675 -0.0072681895 0.0077415914 -0.0030295197
0001b0 20 45 40 3d 6a f0 09 3a 75 85 e0 34 26 99 c9 3b
       0.046940923 0.000526196 4.1820354e-07 0.00615229
0001c0 3e e9 77 3b ab ba ff b3 dc bd 0d ba fe 50 db bb
       0.0037828232 -1.19083175e-07 -0.00054070144 -0.0066930046
0001d0 ac 72 51 3c 2f d3 72 3b fd 24 8f bd c4 92 0d 3c
       0.012783688 0.0037052145 -0.06989477 0.008640949
0001e0 99 fb 7f bc 93 02 a5 3c fb 70 9a 3c 80 d3 ee 3a
       -0.01562395 0.020142829 0.018852701 0.0018220991
0001f0 8a b3 11 bd 09 91 5c bd 9e fa 8c bc d3 98 9a bc
       -0.035571612 -0.053849254 -0.017209347 -0.0188717
000200 02 9c 20 bd ab c1 8e bc 4d ac d6 bc 67 9d e9 bc
       -0.03921128 -0.017426332 -0.026205206 -0.028517438
000210 e6 ef aa 3c c6 a7 bf bb 36 ea 81 ba 01 91 95 bd
       0.020866346 -0.0058488576 -0.0009911719 -0.07303048
000220 6a aa 91 bb a0 5a 30 34 71 dd bc b3 5b 55 45 3c
       -0.004445364 1.6424246e-07 -8.794712e-08 0.012044276
000230 16 1e 27 bd 92 97 57 ba 39 9d 92 bb 57 c8 a6 bc
       -0.040800177 -0.0008224185 -0.004474309 -0.020359201
000240 ea f3 0e b4 1a d1 ca b4 09 1e 4b 3b ac d7 fe 3c
       -1.3313516e-07 -3.7777573e-07 0.0030993244 0.0311087
000250 33 ee 84 3b ff 08 1f 3c a0 14 bc bb 8d fe eb 3b
       0.004056716 0.009706735 -0.0057397634 0.0072019757
000260 ac 67 90 bc df cd a5 bc a3 dd ba bb 0f 99 32 bc
       -0.01762756 -0.020239769 -0.0057026907 -0.01090075
000270 63 22 00 3a 96 72 76 3c 85 49 b4 3a 52 5d b4 3a
       0.00048879365 0.015041968 0.0013754821 0.0013760722
000280 34 d1 59 bc 48 5a c6 3b 28 10 38 bd d9 d5 47 bb
       -0.013294507 0.006053243 -0.044937283 -0.0030492453
000290 18 0c e8 ba b5 86 56 3b 8a ee 2d bb 27 1b 10 bc
       -0.00177038 0.00327341 -0.0026539885 -0.008795536
0002a0 73 56 04 3d 45 24 79 bc 65 6f 93 3b 91 ed 91 b0
       0.032309007 -0.015206401 0.0044993632 -1.0617659e-09
0002b0 ac 63 3a 3b 38 74 f1 3c 1e 15 0f 3d 17 b9 81 3b
       0.0028440757 0.029474363 0.03493225 0.003958832
0002c0 41 8c 86 bc e0 ac fd 3c 02 4a 03 3d 23 d9 a7 bc
       -0.0164243 0.030966222 0.032053 -0.020489281
0002d0 7b bf 8d b4 b4 ec 52 bb 6d 79 13 3b 66 d3 5b 3b
       -2.6402617e-07 -0.0032184543 0.0022502795 0.0033542751
0002e0 49 ff b8 b4 02 69 11 b5 e7 11 dd 3c fd 6d b0 3d
       -3.4458415e-07 -5.4169516e-07 0.026986076 0.086147286
0002f0 46 19 b5 3b 10 51 a7 3b 84 08 30 3b e3 14 d2 3b
       0.0055266945 0.005106099 0.0026860544 0.0064111813
000300 5f 2f 19 bd 8c 71 15 34 0b bc 26 3d f8 53 31 3c
       -0.037398692 1.3918014e-07 0.040706675 0.010823242
000310 4f a6 9e 3c 56 d9 e6 bb e0 f1 33 bb 35 9a 5b ba
       0.019366411 -0.0070449514 -0.00274574 -0.00083771657
000320 20 91 85 3c 19 70 b9 b5 54 58 55 3c bd 16 e3 3c
       0.016304553 -1.3816199e-06 0.013021547 0.027720803
000330 7a cf 4d b4 97 8b 80 3d b8 7e 17 ba 19 3c 49 bb
       -1.9167592e-07 0.06276625 -0.00057790754 -0.0030705987
000340 a9 45 f2 3b 2b be e7 ba a1 f3 41 3b 1a 07 56 3d
       0.007393558 -0.0017680576 0.0029594677 0.052252866
000350 49 19 1c 3d 23 97 ef b8 38 b0 82 bc 85 96 33 3c
       0.03811005 -0.000114245595 -0.015953168 0.01096118
000360 d9 f0 10 34 c1 33 5a bc bc 82 36 bb f8 04 3d bb
       1.3498665e-07 -0.013318003 -0.002784892 -0.0028842073
000370 8c b5 3a bb 20 2c 22 3b d4 59 94 3b f2 c0 ed 34
       -0.0028489558 0.0024745539 0.00452731 4.4285076e-07
000380 03 e3 a5 3c 54 29 f3 bc 0a 0c 17 bb a8 39 73 bb
       0.02024985 -0.029682793 -0.0023047947 -0.0037113223
000390 2e df 32 bb 46 53 52 3a 5f 89 98 bb 83 fc 39 ba
       -0.002729367 0.0008023273 -0.004655048 -0.0007094817
0003a0 a2 28 0a 34 bb 37 d1 3c 31 cc 01 3d 4c f9 48 bb
       1.2867034e-07 0.02553927 0.031688873 -0.003066617
0003b0 c1 d8 8f 3b 46 08 25 3d 43 97 51 3c 66 f3 00 bb
       0.0043898528 0.040291093 0.012792411 -0.0019676327
0003c0 81 77 ad bb bf 83 70 bb 78 7e 28 bc e3 72 db 39
       -0.005293787 -0.003669962 -0.010284059 0.00041856532
0003d0 f2 56 d4 bb d8 d0 93 3b f8 3c 5e b4 38 48 59 bc
       -0.0064800913 0.00451098 -2.0697541e-07 -0.013261847
0003e0 63 2e dc 3b 85 ea 30 3c 77 a0 41 3b 12 18 2d 3b
       0.006719397 0.010798101 0.0029545107 0.0026412052
0003f0 ca fa 39 bc b1 ce 97 ba ee 54 26 bb 01 1a 0a bb
       -0.011351297 -0.0011581985 -0.0025380212 -0.0021072628

conv2.lin_l.weight f4 [7, 64]
000000 d3 36 3a 3e ad 18 1d be ff 00 80 be 01 0e ec bd
       0.18184976 -0.15341444 -0.2500076 -0.115261085
000010 4b 41 c3 bd de ed 27 bd 8b ac 30 3e e7 72 2a be
       -0.09533938 -0.040998332 0.1725332 -0.16645394
000020 2f a5 de 3d 3e b6 6e 3e 52 75 e2 3d 00 9d 5b bc
       0.1087135 0.23311707 0.11057533 -0.013404131
000030 ff 80 63 3e c8 4f c6 bd 63 4d 12 be f4 83 81 3e
       0.22217177 -0.09683186 -0.14287333 0.25295985
000040 7d bc 86 3e d0 46 c0 3d 35 b9 81 bd c8 af 8f be
       0.2631568 0.093885064 -0.063341536 -0.28063798
000050 c9 5f 3b be 3a 55 c7 bd 31 19 7a 3c bf 71 5e be
       -0.18298258 -0.097330526 0.015264795 -0.21723078
000060 a2 54 61 3e c9 ae 4a 3e aa 6d 8a bd 9c a2 87 be
       0.22004941 0.19793238 -0.06759198 -0.2649125
000070 45 64 9d be b3 80 07 be 06 8f 95 3d 50 95 95 bd
       -0.30740562 -0.13232689 0.0730267 -0.0730387
000080 83 c9 bd bd 6f 9b 40 3d be 23 1a 3e 41 c4 38 bd
       -0.09266951 0.047023233 0.15052697 -0.045109037
000090 87 78 86 3e 71 f4 15 be e1 41 71 be e2 4f 1d be
       0.2626383 -0.14644028 -0.23560287 -0.15362504
0000a0 3c e3 92 3e f1 ba 8a be 13 59 1c be 33 8d 80 be
       0.2868899 -0.2709575 -0.15268354 -0.25107726
0000b0 b3 c8 69 3e 5f f8 a4 be 38 71 e7 bd 55 e0 8f be
       0.22830467 -0.32220742 -0.11300892 -0.2810084
0000c0 5c 7a 08 3e 1c 79 89 3d 2b f7 2d be ff d1 0b 3d
       0.13327926 0.06712553 -0.16988818 0.034135815
0000d0 14 86 99 be ff 14 40 be 1f 51 36 be 03 81 55 3e
       -0.29985106 -0.1875801 -0.17804383 0.20849995
0000e0 42 0c 60 be 12 bb ac 3e 1f c5 60 3e 53 01 11 be
       -0.21879676 0.33736473 0.21950196 -0.14160661
0000f0 31 2a a8 3c 59 c3 5f 3e 6b 9c 8c 3e 16 be 38 ba
       0.02052793 0.21851863 0.27463087 -0.0007047368
000100 1b ae da 3c 58 f6 6c 3e b7 6a 2b 3e c5 23 8f 3e
       0.026694348 0.23140848 0.16739927 0.27956977
000110 d4 13 6b be f6 ef 7f 3e 7d 54 3c be 04 06 55 3e
       -0.22956783 0.24993882 -0.18391605 0.20803076
000120 a3 02 34 3e 53 d0 4a bd bd 67 91 be 1e a2 24 bd
       0.17579131 -0.04951508 -0.2839946 -0.04019367
000130 11 8f 97 be 64 46 47 be 88 37 6a 3d 9b 8c 95 be
       -0.29601339 -0.19460446 0.057181865 -0.29208836
000140 06 41 3b be 76 c3 ea bd af 18 cb bd 9c 16 86 3e
       -0.18286523 -0.114630625 -0.099168174 0.26189125
000150 2f 90 88 be f3 6f 30 be 0f 5b 2e be e6 14 a3 3e
       -0.26672503 -0.17230205 -0.17026924 0.31851882
000160 b7 07 5c be c6 0b 29 be 28 2f 07 3e 2f 83 9f bd
       -0.21487318 -0.16508397 0.13201582 -0.07788693
000170 8b 41 48 3e 1d b8 c9 bd df 48 95 be 47 55 00 3e
       0.19556253 -0.0984957 -0.2915716 0.1253253
000180 52 2c d1 bd f6 20 cb 3c 89 e0 95 be 21 dc 41 be
       -0.102135316 0.02479599 -0.2927287 -0.18931629
000190 55 9a 44 3e e8 2a c4 bd be 63 66 3e b3 79 be bd
       0.19199498 -0.09578496 0.22498986 -0.09300556
0001a0 86 72 02 3e 93 70 1e be 4b 45 a3 3e 56 b2 18 3e
       0.12739 -0.15472631 0.31888804 0.1491178
0001b0 39 6d 44 3d f1 1b 85 3e a4 0e f9 3d 6d 1e 2c be
       0.047955725 0.2599788 0.121609956 -0.16808482
0001c0 41 10 b6 3d 5c 92 36 be bf 3d 3c be 5f b5 86 3c
       0.08889819 -0.17829269 -0.1838293 0.016443906
0001d0 00 7e 76 be 39 1a 85 3e 72 a7 95 3e cf 95 2e be
       -0.24071503 0.2599657 0.29229313 -0.17049335
0001e0 0e 97 54 be 69 7a 7e 3e 1b 85 7c be e1 a5 67 3e
       -0.20760748 0.24851383 -0.2466015 0.22621872
0001f0 32 eb 6d be d7 d1 87 3d 6b d4 5b be 59 4c 27 3e
       -0.23234251 0.06631821 -0.2146775 0.16337718
000200 c5 61 7a be 5c 08 7c be bc 51 1d be 32 ec 1e bc
       -0.24451359 -0.24612564 -0.1536321 -0.009699868
000210 7b c4 78 be ce 7b 06 be d8 c7 5d be 54 71 99 3d
       -0.24293701 -0.13133165 -0.21658266 0.07492319
000220 d2 05 be 3d 61 7a d7 bd c9 a8 89 bd bd c3 ae 3e
       0.09278454 -0.10521389 -0.06721646 0.3413371
000230 25 ae 81 be dc d0 b0 bd 0f b2 60 3e 69 27 51 be
       -0.25328174 -0.08633587 0.21942924 -0.2042519
000240 ca aa 35 3e 88 9d 59 be e7 eb 09 3e f9 cc 6b be
       0.17740932 -0.212515 0.13468896 -0.2302741
000250 f5 ab 8e be eb d9 39 3e a1 af 15 be d7 da 80 3e
       -0.27865568 0.18149535 -0.14617778 0.25166962
000260 75 fe 76 be 91 15 57 3c f6 fc 88 be dc ef 6c 3e
       -0.24120505 0.0131277 -0.26755494 0.23138374
000270 89 09 5e 3c ce 0c 61 3e 70 0b 78 be 1b 1f 4b be
       0.013552078 0.21977541 -0.24223113 -0.19836085
000280 9d 97 30 3e 31 f5 09 be 8b 5e 7b 3e 2f f0 21 3e
       0.17245336 -0.1347244 0.24547784 0.15814279
000290 d0 31 35 be a7 e3 bb 3d 45 f0 38 be d6 1f 46 3e
       -0.17694783 0.091742806 -0.18060406 0.19348082
0002a0 b0 13 35 3e 71 e0 63 3e 99 47 78 be 14 7f 54 3e
       0.17683291 0.22253586 -0.24246062 0.20751601
0002b0 37 c4 3a be ce 63 05 be 7f 49 92 3e 55 ac 7f 3e
       -0.18238913 -0.13026354 0.28571698 0.24968083
0002c0 99 e3 4d be 84 0e 6f 3e e7 51 2c be 0e a6 8d 3d
       -0.20106353 0.23345381 -0.16828118 0.06916438
0002d0 b8 d5 7f 3e cf 35 24 be ba cb f4 bd a6 b2 4a be
       0.24983871 -0.16036151 -0.1195292 -0.19794711
0002e0 35 b7 3d be ec 73 23 be 49 30 4e 3e 79 d7 43 3e
       -0.18526919 -0.1596219 0.20135607 0.19125165
0002f0 e6 67 81 be b6 e3 23 be a9 a8 15 3e 59 ba 80 3e
       -0.2527458 -0.16004834 0.1461512 0.25142172
000300 2e 18 8e be 6d d1 81 3e ba 4a 74 3e a3 f4 47 3e
       -0.27752823 0.25355092 0.23856631 0.19526915
000310 08 3e 61 be 49 38 48 3d a5 05 78 3e 38 34 8d 3e
       -0.2199632 0.048881803 0.24220903 0.27578902
000320 b3 b3 92 be 85 36 32 be 37 b2 2e be 9c 87 e1 bd
       -0.28652725 -0.1740361 -0.17060171 -0.110121936
000330 d3 cf 89 be de df 3f be b4 c0 88 be fb 3f 84 3e
       -0.2691637 -0.18737742 -0.2670952 0.25830063
000340 a8 ff 23 be 7e 15 94 3e e5 b6 50 3e f8 0e cb 3d
       -0.16015494 0.28922647 0.20382269 0.099149644
000350 46 22 9e 3e eb c8 9b 3e 9b 9d 00 bd 7c d3 66 be
       0.30885524 0.30426726 -0.031400304 -0.22541612
000360 37 7c 8c be 4b de 8e be 7b 6e 2e be ac 11 6d 3e
       -0.27438518 -0.2790397 -0.17034332 0.23151273
000370 32 7f 33 be b8 14 63 3e bb 0f d1 3d 36 dd a1 3e
       -0.1752899 0.22175872 0.102080785 0.31614083
000380 e5 36 77 be e5 0d 56 3e 3e b9 8e 3e 57 f3 81 3e
       -0.24142034 0.20903738 0.27875704 0.25380966
000390 68 31 45 be 15 84 48 3e 21 2b 6a bd e5 c8 06 bd
       -0.19257128 0.19581635 -0.057170037 -0.03290643
0003a0 57 88 86 3d a7 b2 d5 3d 56 b0 17 3e 9a 1d 4e be
       0.065689735 0.10434466 0.1481336 -0.2012848
0003b0 7b 74 60 3c 9a 13 a7 3c c3 8e 42 be b3 f5 35 be
       0.013699646 0.020395089 -0.18999772 -0.17769508
0003c0 8d 9e 7d be 9a 05 44 be a6 f2 6b be a7 4e 69 be
       -0.24767514 -0.19142762 -0.23041782 -0.2278391
0003d0 a0 5d 56 3e 73 0b 06 3e 42 62 2d be 85 91 00 be
       0.20934153 0.13090305 -0.16932014 -0.12555511
0003e0 34 7c 26 3e 0a 00 3a be d6 ea fc bd 6b 3c 6e be
       0.16258317 -0.18164077 -0.12349479 -0.23265235
0003f0 ae 06 51 be 2d 02 02 be 67 9c a6 3d 1b c7 63 be
       -0.20412704 -0.12696142 0.081353 -0.22243921

conv2.lin_l.bias f4 [7]
000000 c1 ee bc 3c 48 23 f2 bd 1d fa f6 bd 0b bc 6d 3d
       0.023063065 -0.118231356 -0.12059424 0.05804066
000010 f0 52 0c 3e f2 33 e9 3d e4 6a 09 be
       0.13703513 0.11386861 -0.13419682

conv2.lin_r.weight f4 [7, 64]
000000 66 99 8f 3d c2 ab 5a be 2b 90 ac be 25 11 7e be
       0.0701168 -0.21354583 -0.3370374 -0.24811228
000010 12 3e 38 3e 74 fd 97 be b9 b6 33 3d 82 f1 86 3e
       0.17992428 -0.29685557 0.04387543 0.2635613
000020 f3 50 5f 3e 8e a9 43 3e 06 83 ac be 96 d1 36 3e
       0.21808223 0.19107649 -0.33693713 0.17853388
000030 26 75 31 3e 3c 9c 6c be 23 55 0a 3d ee 06 4b 3e
       0.17329845 -0.23106474 0.0337726 0.19826862
000040 25 90 50 3e 37 0a 73 3e b2 b2 a8 bd 2e 2a 7b 3e
       0.20367487 0.23734365 -0.082372084 0.24527809
000050 35 65 4b be bc 87 97 be 6a 0c a1 3e 6a 6d 63 3e
       -0.19862826 -0.29595745 0.31454784 0.22209707
000060 75 f5 36 3e d7 52 9f be cb 8b 5f 3e 52 ec 85 be
       0.17867072 -0.3111789 0.2183067 -0.2615686
000070 61 af 89 be 42 13 6f be 3d 20 1e 3d 0c 6b 02 3e
       -0.26891616 -0.2334719 0.038604964 0.12736148
000080 79 af 96 be f7 c3 56 3e e7 f3 90 be a7 3b 1e 3e
       -0.2943075 0.20973192 -0.28311083 0.15452443
000090 a8 38 55 3e d7 e2 1d 3e 4d 35 73 3e bc c2 5b be
       0.20822394 0.15418564 0.23750801 -0.21461004
0000a0 51 2d 67 3e cd a6 28 3e b9 9b c4 be 47 fe 86 3d
       0.2257588 0.1646988 -0.38400057 0.06591468
0000b0 b1 5a 74 3e 18 e7 a9 bd 74 c2 70 be b0 2e 42 be
       0.23862721 -0.08296031 -0.23511678 -0.18963122
0000c0 5a e4 41 be cc 6a 8b be 4f c3 6d be 82 11 a1 be
       -0.18934765 -0.27229917 -0.23219036 -0.3145867
0000d0 99 0a 93 be b3 b9 1f 3d 80 da ac be 26 7b 78 3e
       -0.28719023 0.038995456 -0.33760452 0.24265727
0000e0 63 7a 2e be 31 18 57 be ff 9d 4f 3e f6 ea a3 be
       -0.17038874 -0.21005322 0.20275114 -0.32015198
0000f0 8b 20 92 3e 88 d5 8a 3e 08 1a 45 3e 64 ed f4 3d
       0.28540453 0.27116036 0.19248211 0.11959341
000100 aa 17 30 3e dd f5 63 3e 1c df 3b 3e cf bb 83 3e
       0.17196527 0.22261758 0.18346828 0.25729224
000110 21 d9 c8 3d ba 4c 39 3e cb 6a 72 bd b8 b0 08 3e
       0.09807039 0.18095675 -0.059183877 0.13348663
000120 53 a0 24 3e 0b e4 46 be 86 f7 84 be 4b 09 06 be
       0.16076784 -0.19422929 -0.25970095 -0.13089482
000130 24 a6 67 be bd c5 5c be 45 3b 5a 3e 4a 32 2e be
       -0.22621971 -0.21559806 0.21311672 -0.17011371
000140 84 03 c0 3d 4a e9 eb bc 49 0e cf bd 61 25 0f 3e
       0.093756706 -0.028797764 -0.101101466 0.13979103
000150 1d 97 7f be 20 7a 63 be d2 46 41 be dc a8 1a 3e
       -0.24959989 -0.22214556 -0.18874672 0.15103477
000160 ac ff 99 be 98 ab 5b 3e 3c 6d 5a 3e 15 9e d2 3d
       -0.30077875 0.21452177 0.21330732 0.10284058
000170 7c 07 59 3e cd 2c 65 be 93 5d 89 be 6c f3 37 be
       0.21194261 -0.22380371 -0.26829204 -0.17963952
000180 b9 15 5b be ff c7 a9 3d f8 0c 97 be 2c 12 af bc
       -0.21395005 0.08290099 -0.29502082 -0.02137097
000190 6a 7c 66 3e b6 7b 9f be 87 d1 51 3e ad 19 32 be
       0.22508398 -0.3114907 0.20490085 -0.17392607
0001a0 7a 60 f9 3d 30 f6 39 be b9 74 64 3e 82 55 f1 3d
       0.121766046 -0.1816032 0.22310151 0.117838874
0001b0 e8 7a 4e 3e 7b 5c 64 3e cd 9b 0f be 45 5d 4c be
       0.20164073 0.22300903 -0.14024277 -0.19957455
0001c0 87 07 5e 3e 93 a5 95 3d ea 42 84 be 9f 05 75 3e
       0.21682559 0.073069714 -0.258323 0.23927926
0001d0 4b d3 53 be b9 dc 52 3e 08 19 4a 3e ff 56 3a be
       -0.2068607 0.20592012 0.19736111 -0.18197249
0001e0 16 d6 7a be 7a ab 80 3e dc b5 18 be 8d 9d 7d 3e
       -0.2449573 0.25130826 -0.14913124 0.24767132
0001f0 9d e1 89 be 7d b6 98 bd b3 92 57 be a6 ee 5c 3e
       -0.26929942 -0.07456682 -0.21052055 0.21575412
000200 24 6f 6c be d3 14 5f be 92 25 65 be 80 5b 35 be
       -0.23089272 -0.21785288 -0.22377613 -0.17710686
000210 65 e0 5f be 4f 08 ad bc 37 3f 55 be 22 08 b4 bd
       -0.21862943 -0.021122126 -0.20824896 -0.08790614
000220 b3 81 44 3e 8c 98 15 3e e7 e3 01 be e6 d0 a2 3e
       0.19190101 0.14608973 -0.12684594 0.31800002
000230 cc f6 84 be 64 0b 43 be be de 8e 3c 74 c3 3c be
       -0.2596954 -0.19047314 0.017440196 -0.18433934
000240 ab 8f 74 3d 55 4c b4 bd 0c 94 05 3e 6e 46 5f be
       0.059707325 -0.08803622 0.13044757 -0.2180421
000250 fb d5 2d be c7 04 09 3e a4 a7 d6 bd 3e a3 22 3e
       -0.16976158 0.13380729 -0.10481194 0.15882584
000260 d2 6c 54 be d2 63 88 be b5 63 56 be ff e5 1b 3e
       -0.20744637 -0.26638657 -0.20936473 0.15224455
000270 6a b7 66 3e 92 7a 0d 3e 3d 08 0d 3d db 96 0b be
       0.22530904 0.13816288 0.034431685 -0.13631766
000280 a9 cf 1b 3e a4 7d 89 be 3f af a8 3d 96 a1 e0 3d
       0.15215935 -0.2685367 0.082365505 0.1096832
000290 ae e6 83 be f3 14 34 3e f5 c9 7e be c3 da 72 3e
       -0.25761932 0.17586116 -0.24881728 0.23716263
0002a0 ad 88 15 3e 81 3c 5d 3e b1 5d 54 be 3c 2c 12 3e
       0.14602919 0.21605112 -0.20738865 0.14274687
0002b0 4b 96 e2 bd 8f 80 fc bd a6 54 51 3e 11 c0 03 3e
       -0.11063822 -0.12329208 0.20442447 0.12866236
0002c0 2a 6f 6b be 0f 7f 1f 3e 04 90 09 3e 71 15 bd 3d
       -0.22991624 0.15575813 0.13433844 0.09232605
0002d0 df 1e 66 3e a6 26 f6 3d 50 cb 0f bd 8d 7a 49 be
       0.22472714 0.1201909 -0.035106003 -0.19675656
0002e0 a5 4f 94 bc a2 92 00 be b5 04 51 3e 6c 11 63 3e
       -0.018104384 -0.12555936 0.20411952 0.22174615
0002f0 3f b4 9b bd f7 21 40 be a9 40 45 3e ab 46 5a 3e
       -0.076027386 -0.18762957 0.19262947 0.2131602
000300 c3 69 82 be 45 11 92 3e 23 22 8c 3e 1c 2e 83 3e
       -0.25471315 0.285288 0.27369794 0.25621116
000310 9a 31 90 be 8e f3 89 3e 57 86 88 3e bf ad 81 3e
       -0.28162843 0.2694363 0.26664993 0.2532787
000320 5c 6a 8c be 06 78 93 be 9e 1f c4 3d 4f ba 2a be
       -0.27424896 -0.28802508 0.09576343 -0.16672634
000330 f5 0a 6b bb 21 7f 49 b8 13 f4 25 be 57 c3 74 3e
       -0.0035864685 -4.8040532e-05 -0.16206388 0.23902641
000340 0f f0 ac be c7 1e 8f 3e 45 fd c1 bc 41 86 77 be
       -0.337769 0.2795317 -0.023680339 -0.24172308
000350 b2 9b 57 3e f6 5a 39 3e 6d e6 56 be 41 69 34 3e
       0.21055487 0.18101105 -0.20986338 0.17618276
000360 c2 ee ae bd e3 26 3b 3d cf ca 82 be b0 76 76 3d
       -0.08541633 0.045691382 -0.25545356 0.060171783
000370 18 ae 0a be cf 5e 79 3e 06 5d d0 bd 49 63 85 3e
       -0.13542974 0.24352573 -0.10173993 0.2605231
000380 a1 36 86 3c 48 cb 41 3e 1e 84 61 3e 90 2e ae 3d
       0.016383471 0.18925202 0.22023055 0.08504975
000390 28 1a 59 3e 34 59 26 3e b5 8e 57 be a3 bc 8b be
       0.21201384 0.16244966 -0.21050532 -0.27292356
0003a0 1d a8 7c be 70 4b 8e 3e c2 68 98 3e 2a 34 8a be
       -0.24673505 0.2779193 0.29767424 -0.26992923
0003b0 86 87 fe 3d 00 ac 9c be da d6 6e be a0 29 84 be
       0.12428193 -0.30599976 -0.23324147 -0.25813007
0003c0 95 d7 84 be 77 33 3d be df 2d 8d be f4 f8 3f be
       -0.25945726 -0.18476664 -0.2757406 -0.18747312
0003d0 99 79 87 3e a4 55 6c be 3d 18 5e 3e 3e f5 8c be
       0.2645996 -0.23079544 0.21688934 -0.27530855
0003e0 74 be 11 bd 52 2a 2b be cc dd 15 be ff a9 90 be
       -0.03558202 -0.16715363 -0.1463539 -0.28254697
0003f0 3a 4f 8d bd 28 e2 63 3e be 33 4f 3e 79 26 ad be
       -0.06899877 0.2225424 0.20234582 -0.33818415
